
conranj@u-14:~/cifarcaps$ python capsulenet.py --routings 3
Using TensorFlow backend.
Namespace(batch_size=100, debug=False, digit=5, epochs=50, lam_recon=0.392, lr=0.001, lr_decay=1.0, routings=3, save_dir='./result', shift_fraction=0.1, testing=False, weights=None)
__________________________________________________________________________________________________
Layer (type)                    Output Shape         Param #     Connected to
==================================================================================================
input_1 (InputLayer)            (None, 32, 32, 3)    0
__________________________________________________________________________________________________
conv1 (Conv2D)                  (None, 9, 9, 256)    442624      input_1[0][0]
__________________________________________________________________________________________________
primarycap_conv2d (Conv2D)      (None, 1, 1, 2048)   42469376    conv1[0][0]
__________________________________________________________________________________________________
primarycap_reshape (Reshape)    (None, 32, 64)       0           primarycap_conv2d[0][0]
__________________________________________________________________________________________________
primarycap_squash (Lambda)      (None, 32, 64)       0           primarycap_reshape[0][0]
__________________________________________________________________________________________________
digitcaps (CapsuleLayer)        (None, 10, 16)       327680      primarycap_squash[0][0]
__________________________________________________________________________________________________
input_2 (InputLayer)            (None, 10)           0
__________________________________________________________________________________________________
mask_1 (Mask)                   (None, 160)          0           digitcaps[0][0]
                                                                 input_2[0][0]
__________________________________________________________________________________________________
capsnet (Length)                (None, 10)           0           digitcaps[0][0]
__________________________________________________________________________________________________
decoder (Sequential)            (None, 32, 32, 3)    3756544     mask_1[0][0]
==================================================================================================
Total params: 46,996,224
Trainable params: 46,996,224
Non-trainable params: 0
__________________________________________________________________________________________________
2017-12-07 21:33:49.195937: I tensorflow/core/platform/cpu_feature_guard.cc:137] Your CPU supports instructions that this TensorFlow binary was not compiled to use: SSE4.1 SSE4.2 AVX AVX2 FMA
…
